model.pt (torch, 15555 bytes, 9 tensors)

conv1.weight f4 [8, 1, 3]
0.326065 -0.4405948 0.6653387 -0.57086384 -0.06967099 0.32176924 -0.52013403 0.6749466
-0.1982379 -0.037605412 -0.4129536 0.4417034 0.1644951 0.25483447 -0.3048046 -0.15318304
0.52115464 -0.07890461 0.2947663 -0.27301332 -0.030187922 -0.5962179 0.48662987 0.052228197
00000000: fef1 a63e a495 e1be a353 2a3f 2224 12bf
00000010: aaaf 8ebd f0be a43e 8127 05bf 4dc9 2c3f
00000020: e0fe 4abe 2208 1abd a76e d3be f326 e23e
00000030: 6771 283e aa79 823e 590f 9cbe 04dc 1cbe
00000040: 646a 053f bd98 a1bd 9ceb 963e 67c8 8bbe
00000050: a94c f7bc bca1 18bf 8d27 f93e 3ced 553d

conv1.bias f4 [8]
-0.7339265 0.097371355 -0.14684688 0.008032359 0.042767584 -0.24505483 0.06975421 -0.28320944
00000000: 9be2 3bbf a26a c73d 075f 16be 289a 033c
00000010: 102d 2f3d a7ef 7abe 4cdb 8e3d d400 91be

conv2.partial_conv.weight f4 [2, 2, 3]
-0.01273599 -0.3485096 0.34117255 0.6400364 0.46179035 0.31434417 0.38915443 0.5548332
0.7111687 0.6215352 0.037125345 0.44435817
00000000: 9daa 50bc da6f b2be 2bae ae3e 6dd9 233f
00000010: c96f ec3e b8f1 a03e 403f c73e 8c09 0e3f
00000020: 270f 363f ee1c 1f3f bf10 183d ea82 e33e

conv2.channel_conv.weight f4 [6, 6, 3]
0.22580065 -0.06296548 0.066609554 0.24195224 0.43520504 0.001267518 0.04444334 -0.13184072
-0.016361881 0.08392406 -0.07691513 0.08487388 0.07656065 -0.18899377 0.14928383 0.2517115
0.20914418 -0.0058084885 0.07609059 -0.15528303 -0.22088906 0.36003527 0.5664435 0.3254073
-0.37374857 0.07968454 -0.092942186 0.15903313 0.05411693 -0.04188164 0.25451794 0.16761236
0.19679171 -0.07531243 0.1694776 -0.060343493 0.06437418 -0.15549038 0.07423923 0.53116137
0.04110474 0.27998042 0.08375066 0.08033469 0.025959428 0.17343585 -0.10170544 -0.029279193
-0.017040227 0.20124063 -0.10275273 -0.09720811 -0.02846181 -0.021188173 -0.07908586 0.09350789
-0.13333419 -0.03481427 0.030121746 -0.16486064 0.22866471 -0.0817108 0.05600777 0.16871363
-0.1611242 0.24392669 -0.038482014 0.01961717 -0.033436235 -0.038442265 -0.067224845 -0.1699891
0.16999996 0.008002891 0.19025375 0.32525975 0.5631185 0.23844492 0.11496832 0.22162108
0.18630722 -0.052122097 -0.010857288 -0.25685865 -0.04091091 -0.074586146 0.20187151 0.16813773
0.026956158 -0.20058767 -0.059263326 0.17843308 0.15587474 0.23282059 0.53559095 0.12265281
-0.17516492 0.03791365 -0.11493168 -0.056992527 0.1602081 0.14524901 -0.35692593 0.014252165
-0.17518513 0.14782242 0.37701735 0.0025355762
00000000: 4938 673e 0cf4 80bd 976a 883d 54c2 773e
00000010: 32d3 de3e d922 a63a 380a 363d 4101 07be
00000020: 5a09 86bc 61e0 ab3d ae85 9dbd 5bd2 ad3d
00000030: d4cb 9c3d 9587 41be dcdd 183e 54e0 803e
00000040: e429 563e 2255 bebb 62d5 9b3d 8402 1fbe
00000050: be30 62be 8b56 b83e 7102 113f c99b a63e
00000060: f95b bfbe a631 a33d 7958 bebd 95d9 223e
00000070: b7a9 5d3d 158c 2bbd 2d50 823e 93a2 2b3e
00000080: c483 493e 673d 9abd 898b 2d3e bd2a 77bd
00000090: 9cd6 833d df38 1fbe bd0a 983d 31fa 073f
000000a0: 725d 283d 9859 8f3e 7785 ab3d 8486 a43d
000000b0: dea8 d43c 2b99 313e f14a d0bd ebda efbc
000000c0: f297 8bbc 0612 4e3e 0670 d2bd 0c15 c7bd
000000d0: be28 e9bc d292 adbc c4f7 a1bd 1181 bf3d
000000e0: c288 08be 6899 0ebd e1c1 f63c 3ad1 28be
000000f0: 1527 6a3e fe57 a7bd 6768 653d 44c3 2c3e
00000100: befd 24be ebc7 793e 519f 1dbd 30b4 a03c
00000110: 6ff4 08bd a375 1dbd 2ead 89bd 9f11 2ebe
00000120: 7814 2e3e 8f1e 033c e1d1 423e 7288 a63e
00000130: 8928 103f e82a 743e 8374 eb3d a3f0 623e
00000140: 52c7 3e3e fb7d 55bd c4e2 31bc fa82 83be
00000150: 3392 27bd 9fc0 98bd 68b7 4e3e 4c2c 2c3e
00000160: 29d3 dc3c db66 4dbe 1abe 72bd 29b7 363e
00000170: a19d 1f3e 8568 6e3e 7d1c 093f 6531 fb3d
00000180: 6f5e 33be 584b 1b3d 4d61 ebbd ff70 69bd
00000190: 980d 243e 28bc 143e ffbe b6be ea81 693c
000001a0: bb63 33be c35e 173e 6b08 c13e e92b 263b

conv3.weight f4 [1, 8, 3]
0.13221437 -0.1749626 -0.36849388 0.48746988 -0.083700165 -0.19052918 0.30441004 -0.19658764
-0.09082715 -0.07921746 0.16359411 -0.08161075 0.041878037 -0.004905657 -0.026233792 -0.13124615
0.17783916 0.08545674 -0.04486977 0.1767035 -0.13490264 0.17545761 -0.12498781 -0.03169486
00000000: 3463 073e 6529 33be 3bab bcbe a795 f93e
00000010: fe6a abbd 151a 43be a2db 9b3e 454e 49be
00000020: 9603 babd c33c a2bd 3785 273e 8923 a7bd
00000030: 4e88 2b3d a2bf a0bb 40e8 d6bc 6465 06be
00000040: 781b 363e f103 af3d 5dc9 37bd c3f1 343e
00000050: eb23 0abe 29ab 333e 9cf9 ffbd 78d2 01bd

fc1.weight f4 [16, 150]
0.17132998 0.07104002 0.021544348 0.04532112 0.09233952 0.051948365 -0.031276576 0.09535825
0.030875273 -0.09330504 -0.043148894 -0.030882588 0.0020198592 0.11780033 -0.062442012 -0.15701383
-0.22517683 -0.21456662 -0.19322652 -0.2667483 -0.21555851 -0.1913756 -0.17668176 -0.15006733
-0.14516427 -0.21288551 -0.22636339 -0.26515633 -0.17791758 0.0038467464 0.26850656 0.22075565
0.072079726 0.068995826 0.16901515 0.17572412 0.2397609 0.22377548 0.14180028 0.04657255
-0.11079667 -0.12718593 -0.25267452 -0.08816884 -0.1895052 -0.5212928 -0.31068307 0.006403473
0.2325047 0.18173125 0.15902871 0.14654371 0.29826117 0.066772155 -0.4089729 -0.5152607
0.37135163 0.7623965 0.5356621 0.38580003 0.38260242 0.4479768 0.6149049 0.61603445
0.4120616 0.1925721 -0.023487126 -0.058739416 -0.023483993 -0.04755696 -0.022056984 0.06558309
0.08508627 0.0027028562 -0.09457169 -0.15153106 -0.08469915 -0.07991238 0.060707204 -0.017052634
0.047339953 0.15718311 0.10663718 0.0075525753 -0.010717939 -0.028227624 0.05579496 -0.13165219
-0.034697257 -0.074860804 -0.16048951 -0.1936009 -0.1370407 -0.17756201 -0.04958594 -0.007195721
-0.11388298 0.029519716 0.053755056 -0.040830683 0.039028376 -0.041147526 -0.021001521 0.0660683
0.04551351 -0.01943908 -0.07237348 0.04240385 0.06661463 -0.07279623 -0.1647102 -0.18736261
-0.3142056 -0.30994266 -0.19372678 -0.10037438 -0.26094535 -0.3043937 -0.3075264 -0.28617153
-0.19420677 -0.13724019 -0.051584464 0.121974364 0.2097908 0.28272405 0.30339822 0.23242743
0.25465903 0.16491918 0.2580906 0.20881322 0.0708217 0.06280568 0.015927104 -0.09788635
-0.12299283 -0.07951256 -0.061821863 -0.011137597 -0.038160477 -0.09065031 -0.02985944 -0.07166126
0.0683053 0.07253417 0.05075308 0.026133278 -0.0906181 -0.18620196 -0.16065188 0.1267527
0.24690874 0.08259755 -0.035499606 -0.1468051 -0.07446705 -0.1079556 -0.06167566 -0.11696732
-0.25148457 -0.22337925 -0.168119 -0.12650876 -0.104311846 -0.21447185 -0.29386443 -0.13268821
-0.20776029 -0.08341889 -0.08056356 -0.007019107 0.0075715375 -0.09259925 -0.09993388 -0.004447821
-0.040264368 -0.049431697 -0.16072899 -0.012849556 0.04712052 0.049169745 0.10152143 0.08483753
0.11763286 0.11489729 0.012395985 0.030154122 -0.017667936 -0.18434095 -0.08907544 0.042227652
0.35545385 1.0042433 0.893789 0.14991379 0.038137257 0.24614379 0.12867956 0.041275885
0.024312422 -0.01657272 0.11940898 0.087352365 0.15823385 0.6204023 0.4561073 0.3747602
0.24077693 0.16226956 0.106097676 0.06409423 -0.18980952 0.06958247 0.16198716 -0.07041152
-0.109265596 -0.2580661 -0.3499505 -0.35174462 -0.3005126 -0.19052449 -0.10657478 -0.1270203
-0.1830935 -0.15528432 -0.12948492 -0.19208513 -0.27656913 -0.23678926 -0.20100665 -0.22150256
-0.22679855 -0.21768004 -0.11362263 -0.20549534 -0.28313228 -0.22492294 -0.09313745 -0.06781852
-0.07657791 -0.10119517 0.08954051 0.08042004 0.26408464 0.2970191 0.37757066 0.27232453
0.29948673 0.34427315 0.27559108 0.1952693 0.33330062 0.29698512 0.2802644 0.28023887
00000000: 2071 2f3e 6e7d 913d c67d b03c a4a2 393d
00000010: 811c bd3d cfc7 543d de1b 00bd 304b c33d
00000020: 24ee fc3c b616 bfbd e5bc 30bd 7bfd fcbc
00000030: 9d5f 043b 4d41 f13d 32c3 7fbd 3cc8 20be
00000040: c194 66be 5ab7 5bbe 2cdd 45be 3c93 88be
00000050: 5fbb 5cbe f7f7 43be 10ec 34be 40ab 19be
00000060: f1a5 14be a9fe 59be cecb 67be 92c2 87be
00000070: 0730 36be b219 7c3b b179 893e c50d 623e
00000080: 899e 933d af4d 8d3d 4f12 2d3e 06f1 333e
00000090: e283 753e 6625 653e 1834 113e dcc2 3e3d
000000a0: 5de9 e2bd 073d 02be 8e5e 81be dd91 b4bd
000000b0: a70d 42be 7273 05bf da11 9fbe 3ad4 d13b
000000c0: b615 6e3e c217 3a3e 6cd8 223e 8e0f 163e
000000d0: b0b5 983e d7bf 883d e564 d1be 20e8 03bf
000000e0: cd21 be3e 6b2c 433f 2721 093f 9587 c53e
000000f0: 77e4 c33e 375d e53e 686a 1d3f 6fb4 1d3f
00000100: bdf9 d23e 9f31 453e 1368 c0bc be98 70bd
00000110: 8161 c0bc 16cb 42bd d9b0 b4bc 6d50 863d
00000120: b641 ae3d 6722 313b cdae c1bd f52a 1bbe
00000130: bf76 adbd 1aa9 a3bd 1ea8 783d f7b1 8bbc
00000140: 8ae7 413d 9cf4 203e 9864 da3d 987b f73b
00000150: 4b9a 2fbc 9e3d e7bc 4289 643d d5cf 06be
00000160: b61e 0ebd 9f50 99bd 5d57 24be 503f 46be
00000170: 6654 0cbe d1d2 35be a01a 4bbd 15ca ebbb
00000180: 7b3b e9bd 55d3 f13c 432e 5c3d 133e 27bd
00000190: 38dc 1f3d 4f8a 28bd 620b acbc d14e 873d
000001a0: 606c 3a3d b53e 9fbc 8c38 94bd a9af 2d3d
000001b0: 406d 883d 3116 95bd caa9 28be fcdb 3fbe
000001c0: 8edf a0be ceb0 9ebe 5060 46be 1591 cdbd
000001d0: a19a 85be 7ed9 9bbe 1a74 9dbe 1385 92be
000001e0: 24de 46be b188 0cbe 3b4a 53bd b2cd f93d
000001f0: 66d3 563e 35c1 903e 0357 9b3e 7501 6e3e
00000200: ab62 823e 93e0 283e 7324 843e 22d3 553e
00000210: f80a 913d 44a0 803d 8f79 823c a378 c8bd
00000220: aae3 fbbd 7bd7 a2bd ec38 7dbd 787a 36bc
00000230: 294e 1cbd dfa6 b9bd c99b f4bc 24c3 92bd
00000240: a6e3 8b3d cb8c 943d 76e2 4f3d 7515 d63c
00000250: fb95 b9bd baab 3ebe ed81 24be 76cb 013e
00000260: a5d5 7c3e e728 a93d 0968 11bd 1354 16be
00000270: 2e82 98bd d317 ddbd 9e9f 7cbd 908c efbd
00000280: 96c2 80be 88bd 64be 6327 2cbe 838b 01be
00000290: 73a1 d5bd 829e 5bbe 6675 96be 6bdf 07be
000002a0: 1dbf 54be 86d7 aabd 82fe a4bd 8a00 e6bb
000002b0: a91a f83b ada4 bdbd 22aa ccbd 07bf 91bb
000002c0: 40ec 24bd e478 4abd 2496 24be f286 52bc
000002d0: 7201 413d 3766 493d 78ea cf3d 4dbf ad3d
000002e0: 7fe9 f03d 454f eb3d 8818 4b3c c705 f73c
000002f0: 59bc 90bc e0c3 3cbe 2f6d b6bd e7f6 2c3d
00000300: 0cfe b53e 0b8b 803f 5bcf 643f 0083 193e
00000310: d035 1c3d 1e0d 7c3e 93c4 033e e710 293d
00000320: d82a c73c 83c3 87bc b28c f43d cce5 b23d
00000330: 0e08 223e afd2 1e3f e586 e93e 92e0 bf3e
00000340: 3a8e 763e fe29 263e bd49 d93d d643 833d
00000350: 6d5d 42be 4181 8e3d f6df 253e ea33 90bd
00000360: a4c6 dfbd 3d21 84be b62c b3be df17 b4be
00000370: cadc 99be da18 43be e143 dabd 9c11 02be
00000380: dd7c 3bbe da02 1fbe b297 04be f7b1 44be
00000390: 789a 8dbe e278 72be b0d4 4dbe 91d1 62be
000003a0: e13d 68be 84e7 5ebe fbb2 e8bd 5f6d 52be
000003b0: b7f6 90be 3352 66be d9be bebd 70e4 8abd
000003c0: e1d4 9cbd 6a3f cfbd 0461 b73d 43b3 a43d
000003d0: 1a36 873e e312 983e f150 c13e 1f6e 8b3e
000003e0: 5356 993e 9244 b03e 461a 8d3e adf4 473e
000003f0: 61a6 aa3e 6f0e 983e d17e 8f3e 787b 8f3e

fc1.bias f4 [16]
0.24855058 -0.16743311 -0.3255723 0.096323185 -0.30369174 -0.015237468 -0.32625967 0.23635428
0.3034265 -0.24246101 -0.29804778 0.04382132 0.20841421 -0.06567451 0.27782664 0.04146605
00000000: 0b84 7e3e 9673 2bbe 6ab1 a6be 1745 c53d
00000010: 7c7d 9bbe 93a6 79bc 820b a7be db06 723e
00000020: b85a 9b3e b347 78be b899 98be fc7d 333d
00000030: 896a 553e 5c80 86bd 4b3f 8e3e 4ed8 293d

fc2.weight f4 [5, 16]
0.43618378 0.022584729 -0.20742622 0.37012154 -0.4161617 0.02965174 -0.48608756 0.41684508
0.36156934 -0.42738083 0.4346989 0.5580301 0.19288808 -0.5904508 -0.17574127 0.34504494
0.111294895 -0.67944324 0.048282903 -0.32609513 -0.05483519 0.5846007 -0.28585175 -0.4344908
-0.08814998 0.13289152 0.14735936 -0.5247277 -0.0019097946 0.38633022 0.23485418 -0.10541165
-0.08279013 0.21927486 0.2643422 0.087068036 0.7563011 0.1978393 0.15565073 0.15485524
0.108494595 -0.09509382 -0.50252455 0.43288416 -0.17867714 0.2869799 -0.58998775 -0.37462267
0.43097562 0.3713468 -0.68377227 -0.4943745 -0.48398826 -0.70123607 0.92444634 -0.10233639
-0.7478586 0.48632756 -0.6658777 -0.457587 -0.42075336 0.4255539 -0.26969653 0.32693908
-1.4725934 -1.0856712 0.90299255 -0.11970994 0.1992768 -0.8926306 -0.3771409 -0.6103192
-0.21392101 0.16224055 0.5337894 -0.30377537 -0.13634163 -1.6598318 0.52059317 -0.14770496
00000000: 7b53 df3e 9c03 b93c 8a67 54be 9280 bd3e
00000010: 2513 d5be 35e8 f23c 78e0 f8be b86c d53e
00000020: 9e1f b93e a9d1 dabe db90 de3e 10db 0e3f
00000030: 7484 453e c927 17bf 85f5 33be bba9 b03e
00000040: 94ee e33d feef 2dbf 4bc4 453d f1f5 a6be
00000050: dd9a 60bd 64a8 153f 295b 92be 9475 debe
00000060: fa87 b4bd b714 083e 5fe5 163e 8e54 06bf
00000070: 1352 faba 13cd c53e 9d7d 703e 10e2 d7bd
00000080: df8d a9bd 9789 603e dc57 873e ba50 b23d
00000090: f39c 413f 6396 4a3e e862 1f3e 5f92 1e3e
000000a0: 6a32 de3d 8cc0 c2bd 73a5 00bf fea2 dd3e
000000b0: 24f7 36be 08ef 923e 7009 17bf 8bce bfbe
000000c0: d6a8 dc3e 2b21 be3e b30b 2fbf a81e fdbe
000000d0: 4fcd f7be 3584 33bf 84a8 6c3f be95 d1bd
000000e0: a973 3fbf edff f83e f676 2abf d848 eabe
000000f0: fc6c d7be 33e2 d93e aa15 8abe 8f64 a73e
00000100: f17d bcbf 46f7 8abf 852a 673f 7c2a f5bd
00000110: 380f 4c3e 7083 64bf 9d18 c1be e13d 1cbf
00000120: 1c0e 5bbe 6322 263e 6ca6 083f 7288 9bbe
00000130: 249d 0bbe 5e75 d4bf 9845 053f f83f 17be

fc2.bias f4 [5]
-0.30027696 -0.12655526 -0.07227397 0.34063247 0.052493937
00000000: e7bd 99be b497 01be 6004 94bd 6167 ae3e
00000010: e203 573d
