pruned_model.pt (torch, 15880 bytes, 9 tensors)

conv1.weight f4 [8, 1, 3]
0	0x3e9ea63d	0.30986205
1	0xbf07313f	-0.5280952
2	0x3f23b453	0.6394703
3	0xbf22cd43	-0.63594455
4	0x00000000	0.0
5	0x3ea32d32	0.3187042
6	0xbf00c4ea	-0.50300467
7	0x3f33d871	0.7025214
8	0xbea18fd6	-0.3155505
9	0x00000000	0.0
10	0xbee0f881	-0.43939593
11	0x3eecbfa4	0.4623996
12	0x00000000	0.0
13	0x3ea879ff	0.32905576
14	0xbe9e6165	-0.3093368
15	0xbe427728	-0.18990767
16	0x3ee61ab1	0.4494224
17	0x00000000	0.0
18	0x3e88fad5	0.2675387
19	0xbe920853	-0.28521976
20	0x00000000	0.0
21	0xbf1a970f	-0.6038675
22	0x3ef95f97	0.48705742
23	0x00000000	0.0

conv1.bias f4 [8]
0	0xbf48955f	-0.7835292
1	0x3dd96a64	0.106159955
2	0xbda8b19c	-0.08237001
3	0x3c8bce30	0.017066091
4	0xbbf4650a	-0.007458334
5	0xbe41cf1f	-0.18926667
6	0xbc62df96	-0.013847252
7	0xbe2cbd6e	-0.16869137

conv2.partial_conv.weight f4 [2, 2, 3]
0	0xbc921cba	-0.017835964
1	0xbec3e5f6	-0.38261384
2	0x3ed89438	0.42300582
3	0x3f44f10f	0.76930326
4	0x3ed01d00	0.40647125
5	0x3e99abf5	0.30014005
6	0x3e80b7ec	0.2514032
7	0x3ef2ed97	0.47446892
8	0x3f8286f1	1.0197431
9	0x3f4115a4	0.75423646
10	0xbdd29430	-0.10282171
11	0x3ec3961e	0.38200468

conv2.channel_conv.weight f4 [6, 6, 3]
0	0x3e5c8e36	0.21538624
1	0xbda99956	-0.082812
2	0x3d98013a	0.07422109
3	0x3eabda80	0.3356514
4	0x3e7ae804	0.2450257
5	0x3e1ded87	0.1542264
6	0x3c24b69e	0.010053305
7	0x3d6fd6f7	0.058554616
8	0xbe4fc353	-0.20289354
9	0x3c953d03	0.01821757
10	0xbd0761ce	-0.03305226
11	0x3d440987	0.04786065
12	0xba13c8f5	-0.000563755
13	0xbe0dea04	-0.13858801
14	0x3e0d02ee	0.13770649
15	0x3e42bc0e	0.1901705
16	0x3e3c14a5	0.1836725
17	0x3d56c7b3	0.05243654
18	0x3d30ae73	0.043135118
19	0xbe067ab3	-0.13132744
20	0xbe28d7bc	-0.16488546
21	0x3dabaadf	0.083822004
22	0x3f3dbcc6	0.7411617
23	0x3d56aa0d	0.052408267
24	0xbe7d9ba9	-0.24766411
25	0xbe0fec0f	-0.14054893
26	0x3dbcabf9	0.09212489
27	0x3dcf4b53	0.10121789
28	0xbd776173	-0.06039567
29	0xbdb824b5	-0.08991376
30	0x3ec19450	0.37808466
31	0x3db91d2a	0.09038766
32	0x3dc6c5ce	0.09705697
33	0xbd72c51e	-0.059270017
34	0x3e4c1b6c	0.19932336
35	0xbda4a8b3	-0.08039989
36	0x3dbdfd04	0.092767745
37	0xbe028ab5	-0.12748225
38	0x3ddce6f0	0.10786235
39	0x3f2038de	0.6258677
40	0xbd17d5c9	-0.037069116
41	0x3e8d8f1b	0.27648243
42	0xbd2f72b7	-0.04283401
43	0x3e04f8c2	0.12985519
44	0xbd8fa0e5	-0.0701311
45	0x3e1f3192	0.15546253
46	0xbd1bab4c	-0.03800516
47	0xbd6e1cea	-0.058133043
48	0xbd29332f	-0.041308578
49	0x3e7271a0	0.23676157
50	0xbd88b7be	-0.06675671
51	0xbdc30efb	-0.09524342
52	0xbbb47f94	-0.0055083726
53	0x3d0499f3	0.03237338
54	0xbdaaa445	-0.08332113
55	0x3dd63500	0.10459328
56	0xbe110a51	-0.14164092
57	0x3ce50d82	0.027960543
58	0x3dc55ff1	0.0963744
59	0xbe7948b6	-0.24344143
60	0x3e28b060	0.16473532
61	0xbe22832e	-0.15870354
62	0x3db43ffe	0.08801268
63	0x3e788617	0.24269901
64	0xbde924d5	-0.11383978
65	0x3e958c0e	0.29208416
66	0x3bab726e	0.005232147
67	0xbc8e6953	-0.017384207
68	0x3d19524d	0.037432004
69	0xbc935bf3	-0.01798818
70	0xbd62c445	-0.05536296
71	0xbe3d5619	-0.18489875
72	0x3ded903e	0.11599778
73	0x3d0b3c34	0.03399296
74	0x3e41fecf	0.18944858
75	0x3df77898	0.12083548
76	0x3f9429da	1.1575272
77	0xb7e88990	-2.7720613e-05
78	0x3e700478	0.23439205
79	0xbe1244d1	-0.14284064
80	0x3ec340f2	0.38135487
81	0x3d9735f3	0.07383337
82	0x3dee736c	0.11643109
83	0xbe40f883	-0.188448
84	0x3d992974	0.0747861
85	0xbe1b980d	-0.15194722
86	0x3dca7f74	0.09887591
87	0x3e381b27	0.17979108
88	0x3da178a3	0.07884338
89	0xbe4530db	-0.19256918
90	0xbcf7162f	-0.030161945
91	0x3e32d1ed	0.17462893
92	0x3e82011c	0.2539147
93	0x3e8c0666	0.27348632
94	0x3e6cf8b2	0.23141745
95	0x3e51a5aa	0.20473352
96	0xbe61270a	-0.21987548
97	0x3e841802	0.25799567
98	0xbeb06afe	-0.3445663
99	0xbdd65a56	-0.10466449
100	0x3e4f6373	0.2025278
101	0x3de01016	0.10940568
102	0xbedf27ab	-0.43584952
103	0x3db8c0a9	0.09021122
104	0xbe0106fe	-0.12600324
105	0x3e02b9b6	0.12766156
106	0x3eba0b2e	0.36336654
107	0x3e13b1ec	0.1442334

conv3.weight f4 [1, 8, 3]
0	0x3e16f294	0.14740974
1	0xbe46d71f	-0.19418
2	0xbefbdfea	-0.4919427
3	0x3f0929a3	0.5357916
4	0xbd5985c6	-0.053106092
5	0xbe85ab9e	-0.26107496
6	0x3ea702d1	0.32619336
7	0xbe1b3b0f	-0.15159248
8	0xbe301791	-0.1719649
9	0xbe386223	-0.18006186
10	0x3e022b14	0.12711746
11	0x3d489b29	0.048976097
12	0x3ddf4bb0	0.10903108
13	0x3c0acf70	0.0084723085
14	0xbde01a29	-0.1094249
15	0xbdf54a07	-0.1197701
16	0x3e4502b3	0.19239311
17	0x3dd201e1	0.102542646
18	0xbd82a1db	-0.06378528
19	0x3e431abd	0.19053169
20	0xbdfbf25e	-0.12302087
21	0x3e4ee281	0.20203592
22	0xbdefcdb5	-0.117091574
23	0xbd9eadc1	-0.07747985

fc1.weight f4 [16, 150]
0	0x3d16ccbc	0.036816344
1	0xbd94b362	-0.07260777
2	0x3dea45bd	0.11439083
3	0x3da3af8c	0.07992467
4	0x3e304ff1	0.17217995
5	0x3e011b17	0.1260799
6	0x3d9cf0be	0.076631054
7	0x3e2d442d	0.16920538
8	0x3d1fa96d	0.038979936
9	0xbdf43360	-0.119238615
10	0xbdc6656f	-0.09687316
11	0xbdb61ef9	-0.08892626
12	0x3da67178	0.08127111
13	0x3e8172de	0.2528295
14	0x3bc3aa1a	0.0059712054
15	0xbe7b4c29	-0.24540772
16	0xbeb12639	-0.34599474
17	0xbe5bf008	-0.21478283
18	0xbe24b0c0	-0.1608305
19	0xbe9f54fe	-0.3111953
20	0xbe7e6341	-0.2484255
21	0xbe86ecfe	-0.26352686
22	0xbe8177cd	-0.25286713
23	0xbe2ab7a9	-0.16671623
24	0xbdfe4096	-0.124146625
25	0xbe5d01d2	-0.21582726
26	0xbe7e4631	-0.24831463
27	0xbe9bf6b0	-0.30461645
28	0xbdff5d76	-0.12468998
29	0x3e1a59e3	0.15073352
30	0x3ef7467f	0.48295972
31	0x3eba990c	0.3644489
32	0x3ddb9345	0.10721449
33	0x3cd74082	0.026275877
34	0x3e145cbd	0.14488502
35	0x3e22af65	0.1588722
36	0x3e731987	0.23740207
37	0x3d9e4a92	0.07729067
38	0x3debe116	0.11517541
39	0x3e3481f2	0.17627695
40	0x3dac24bc	0.08405444
41	0xbcf8993b	-0.030346503
42	0xbeeed7a5	-0.466489
43	0xbeaa3084	-0.3324014
44	0xbe17df1d	-0.14831205
45	0xbf01d0c0	-0.5070915
46	0xbefb00d7	-0.49024078
47	0xbdeeb8b8	-0.11656326
48	0x3e6b710e	0.22992346
49	0x3e6bae3d	0.23015685
50	0x3e6a916f	0.22907041
51	0x3e8d0f05	0.27550521
52	0x3eeb8004	0.45996106
53	0xbd4aa9af	-0.04947823
54	0xbeece25a	-0.46266443
55	0xbef7c615	-0.48393312
56	0x3f15e2c5	0.5854915
57	0x3f7958b2	0.97400963
58	0x3f07f2a3	0.5310461
59	0x3eb44157	0.352061
60	0x3e9739f1	0.29536393
61	0x3eb22173	0.34791145
62	0x3ef6c8b8	0.4820001
63	0x3f13ea40	0.5777931
64	0x3ed7e9f2	0.42170674
65	0x3e1ca1a9	0.15296043
66	0xbdd6aecd	-0.10482559
67	0xbd8cfa13	-0.06883635
68	0x3d5e6e9c	0.054304704
69	0x3d993978	0.074816644
70	0x3dd68518	0.10474604
71	0x3e4bf2f0	0.19916892
72	0x3e6b633d	0.22987075
73	0x3d8e3d36	0.06945269
74	0xbe3b02ad	-0.1826274
75	0xbe79c4a5	-0.2439142
76	0xbe0467c6	-0.12930211
77	0xbd4f5e9b	-0.050627332
78	0x3e0e37c1	0.13888456
79	0x3d3a1826	0.045433186
80	0x3dab2aeb	0.08357795
81	0x3df1fe72	0.1181611
82	0x3d82fd5d	0.063959815
83	0xbdad3cc7	-0.08458858
84	0xbda4747f	-0.08030032
85	0xbd82798b	-0.06370839
86	0x3b011551	0.0019696543
87	0xbe455018	-0.19268835
88	0xbd9a5d59	-0.07537336
89	0xbddf1a8e	-0.10893737
90	0xbe514648	-0.20436966
91	0xbe87a5f6	-0.26493806
92	0xbe73ce8f	-0.23809265
93	0xbea22ec6	-0.3167631
94	0xbdce4b53	-0.10072961
95	0xbbceaf86	-0.006307545
96	0xbe086ad5	-0.13322003
97	0x3cba207e	0.022720572
98	0x3d60d9f9	0.054895375
99	0xbd95c899	-0.073136516
100	0xbd2ee7f7	-0.042701688
101	0xbdeb2394	-0.11481395
102	0xbb2268ed	-0.002478178
103	0x3dd84545	0.10560087
104	0x3d6a0f58	0.05714354
105	0xba13268a	-0.0005613348
106	0xbd0f57ec	-0.03499596
107	0x3d89e00b	0.06732186
108	0x3dac4b66	0.084128186
109	0xbdd13f78	-0.10217184
110	0xbe6eb443	-0.23310952
111	0xbe649298	-0.22321546
112	0xbeb38707	-0.35063955
113	0xbeb15dbb	-0.34641823
114	0xbe2f237a	-0.17103377
115	0xbcbec90d	-0.023289228
116	0xbe2650c7	-0.16241752
117	0xbe6ca10c	-0.2310831
118	0xbe3b1cd2	-0.18272713
119	0xbe0aa771	-0.13540436
120	0xbe0cf811	-0.13766505
121	0xbe358246	-0.17725477
122	0xbde85925	-0.11345128
123	0x3c9a04a1	0.018801035
124	0x3e4782ed	0.19483538
125	0x3e96a75a	0.29424554
126	0x3eb62e73	0.35582313
127	0x3e7d2649	0.24721636
128	0x3e2e5fab	0.17028682
129	0x3da6b7ed	0.0814055
130	0x3e54d39b	0.20783846
131	0x3e3d7abd	0.18503852
132	0x3d8e6afe	0.06954001
133	0x3ac5f394	0.0015102499
134	0x3bfe4c2a	0.0077605443
135	0xbe3dc438	-0.18531883
136	0xbdf37e41	-0.118893154
137	0x3c632238	0.013863139
138	0x3d978e4c	0.07400188
139	0x3d63e092	0.05563409
140	0x3d196ec9	0.03745917
141	0xbd87f269	-0.06638033
142	0xbdc67f19	-0.09692211
143	0xbd796962	-0.060891517
144	0x3df19952	0.11796822
145	0x3d7e433b	0.062075835
146	0xbd225f64	-0.039641753
147	0xbd1eddab	-0.038785618
148	0xbd70e38c	-0.058810756
149	0xbe172bed	-0.1476285
150	0xbdab168a	-0.08353908
151	0x3ec061ac	0.37574518
152	0x3e8d21d9	0.27564886
153	0x3d939a0c	0.072071165
154	0xbdf86d79	-0.12130255
155	0xbe86703d	-0.26257506
156	0xbe67c8a7	-0.22635137
157	0xbe6c50a2	-0.23077634
158	0xbe388283	-0.18018536
159	0xbe0d0efa	-0.13775244
160	0xbe7483e7	-0.23878442
161	0xbe88a9ae	-0.26691955
162	0xbe6e278a	-0.2325727
163	0xbdfa9ac6	-0.12236552
164	0x3b8f7c98	0.0043788664
165	0xbdc107f0	-0.09425342
166	0xbe8c5121	-0.27405646
167	0xbddb76cd	-0.10716019
168	0xbe22ea5e	-0.15909716
169	0xbc5f4269	-0.013626673
170	0xbc066bb1	-0.008204387
171	0x3dde7251	0.10861648
172	0x3e3024f3	0.17201595
173	0x3d634b8a	0.05549196
174	0xbcc3f47a	-0.023920286
175	0xbafd7674	-0.001933767
176	0xbc8820da	-0.016617227
177	0xbd42bbf6	-0.047542535
178	0xbe4ceb84	-0.20011717
179	0xbc942b64	-0.018087097
180	0x3db8878e	0.0901023
181	0x3d02412f	0.031800445
182	0x3c98115d	0.018562967
183	0x3c79bb95	0.015242477
184	0x3dc2fb0d	0.095205404
185	0x3db7a49f	0.08966946
186	0xbd891936	-0.06694262
187	0xbd35cdc0	-0.04438567
188	0xbe00559a	-0.12532654
189	0xbe4cad2c	-0.19987935
190	0xbe55cf8b	-0.20879953
191	0xbdd1b7d7	-0.10240143
192	0x3e9111b3	0.28333816
193	0x3f9bd2a2	1.2173655
194	0x3f97d041	1.1860429
195	0x3e3c4c39	0.18388452
196	0xbda9b196	-0.08285825
197	0x3e88f505	0.26749435
198	0x3db16f9f	0.08663868
199	0x3c46a885	0.012125139
200	0xbd16e324	-0.036837712
201	0xbd9d3c5c	-0.07677528
202	0x3d06928c	0.0328546
203	0x3c3528f1	0.0110571245
204	0x3de6abcf	0.11263239
205	0x3f2544a4	0.6455786
206	0x3efc3a40	0.4926319
207	0x3f105f7d	0.56395704
208	0x3e8123e7	0.25222704
209	0x3e94b7c7	0.2904646
210	0x3e5ddf40	0.21667194
211	0x3e1cf7c1	0.15328886
212	0xbe5d06ff	-0.215847
213	0x3c661556	0.014043173
214	0x3d229b26	0.039698742
215	0xbe49cff7	-0.19708239
216	0xbe38b6f1	-0.18038537
217	0xbe81b632	-0.25334316
218	0xbed530c7	-0.41638777
219	0xbede8a4c	-0.43464887
220	0xbea38cd0	-0.3194337
221	0xbdf8d310	-0.12149632
222	0xbd109cf5	-0.035305936
223	0xbd8842a0	-0.06653333
224	0xbe86152d	-0.2618803
225	0xbe8ebedd	-0.27879992
226	0xbe5f60e8	-0.2181431
227	0xbe6c37a1	-0.23068096
228	0xbe9eef17	-0.31041786
229	0xbe82ffb9	-0.25585726
230	0xbe68ad62	-0.2272239
231	0xbe8d8421	-0.2763987
232	0xbe8661cf	-0.26246497
233	0xbe6903ad	-0.22755308
234	0xbe0eeb5c	-0.1395697
235	0xbea23118	-0.3167808
236	0xbeb9272e	-0.36162704
237	0xbe5e606f	-0.21716474
238	0xbdbb4b6a	-0.091452435
239	0xbdaee5c1	-0.08539916
240	0xbd709fa0	-0.05874598
241	0xbdb94d73	-0.090479754
242	0x3da06e59	0.07833547
243	0x3d9fdd19	0.07805843
244	0x3e9b6af2	0.3035503
245	0x3e9c172f	0.30486438
246	0x3ecf593b	0.40497765
247	0x3ea3672c	0.3191465
248	0x3eaa4946	0.33259028
249	0x3ea56a78	0.32307792
250	0x3e63d1f0	0.22248054
251	0x3e4f82a6	0.20264682
252	0x3ecad9bc	0.39619243
253	0x3eb43ef7	0.35204288
254	0x3eaa4c0e	0.3326115
255	0x3ec22f30	0.37926626

fc1.bias f4 [16]
0	0x3e5aa010	0.21350121
1	0xbd941551	-0.07230628
2	0xbedf4b30	-0.4361205
3	0x3daa4b0e	0.08315097
4	0xbec6344b	-0.3871177
5	0xbd4ae3fc	-0.04953383
6	0xbedb6429	-0.42849854
7	0x3eacce1f	0.33751008
8	0x3eabc8a2	0.33551508
9	0x3bfc1677	0.0076931077
10	0xbef7bf90	-0.48388338
11	0x3e05b39d	0.13056798
12	0x3e706077	0.23474298
13	0xbcf1e540	-0.02952826
14	0x3e8f611b	0.28003773
15	0xbe9e5ea9	-0.30931595

fc2.weight f4 [5, 16]
0	0x3f092945	0.535786
1	0x00000000	0.0
2	0xbeaedf34	-0.34154665
3	0x3eca93b7	0.39565822
4	0xbe99ae4b	-0.30015787
5	0x00000000	0.0
6	0xbed26c48	-0.41098237
7	0x3eb88c51	0.36044553
8	0x3eaf586a	0.34247142
9	0xbef8897b	-0.4854239
10	0x3ee3f902	0.44525915
11	0x3f25f5c7	0.6482815
12	0x00000000	0.0
13	0xbf0a3592	-0.5398799
14	0xbd8a1316	-0.067419216
15	0x00000000	0.0
16	0x3d355de0	0.04427898
17	0xbf2e4c30	-0.68085
18	0x00000000	0.0
19	0xbeb4630c	-0.35231817
20	0x00000000	0.0
21	0x3f149b0b	0.58049077
22	0xbf1d0a57	-0.613439
23	0xbeee8dd0	-0.4659257
24	0x00000000	0.0
25	0x3dcbe046	0.09954886
26	0x3e8f1edc	0.2795323
27	0xbd0af3cc	-0.03392391
28	0x00000000	0.0
29	0x3e96e642	0.29472548
30	0x3ea8a3e0	0.32937527
31	0xbec148ac	-0.37750757
32	0xbd2261f4	-0.039644197
33	0x3e6a57ba	0.22885028
34	0x3e3f5b6e	0.18687221
35	0x00000000	0.0
36	0x3f6cc8f2	0.9249412
37	0x3e301bfe	0.17198178
38	0x00000000	0.0
39	0x00000000	0.0
40	0x00000000	0.0
41	0xbd100b09	-0.035166774
42	0xbf18f331	-0.5974608
43	0x3f0e9bdc	0.5570657
44	0xbe9a0e51	-0.30089048
45	0x3eb611bf	0.35560414
46	0xbee82dba	-0.45347387
47	0xbf2406bb	-0.6407277
48	0x3eab855b	0.3350018
49	0x3e8efc1b	0.27926716
50	0xbf305f1a	-0.68895113
51	0xbf807388	-1.0035257
52	0x00000000	0.0
53	0xbf46e63a	-0.7769505
54	0x3f6c7a7e	0.9237441
55	0xbe498be0	-0.19682264
56	0xbf4cec33	-0.8004791
57	0x3f1903d9	0.59771496
58	0xbfa5563a	-1.2916939
59	0x00000000	0.0
60	0x00000000	0.0
61	0x3ee7b1a4	0.45252717
62	0x00000000	0.0
63	0xbe64bd12	-0.2233775
64	0xbf9ec53e	-1.2403944
65	0xbfce860b	-1.6134657
66	0x3f6b4428	0.91900873
67	0xbd8e1ff9	-0.06939692
68	0x3eb0b0a0	0.34509754
69	0xbf42a3b9	-0.7603107
70	0xbf675d8f	-0.90377134
71	0xbf1178c2	-0.56824887
72	0xbef60eaf	-0.48058078
73	0xbd7875be	-0.060659163
74	0x3f4e7fa1	0.80663496
75	0xbe54d420	-0.20784044
76	0xbe6daf7c	-0.23211473
77	0xbfff7e87	-1.9960488
78	0x3f28cad6	0.65934503
79	0xbe7b0adc	-0.24515861

fc2.bias f4 [5]
0	0xbe46adde	-0.19402263
1	0x3da9c3f2	0.08289327
2	0x3e171010	0.14752221
3	0xbec7e9ea	-0.3904565
4	0x3d4f007c	0.05053757
